…
          inputCode={`# Install torchinfo if it's not available, import it if it is
try: 
    import torchinfo
except:
    !pip install torchinfo
    import torchinfo
    
from torchinfo import summary
summary(model_0, input_size=[1, 3, 64, 64]) # do a test pass through of an example input size `}
          outputCode={`==========================================================================================
Layer (type:depth-idx)                   Output Shape              Param #
==========================================================================================
TinyVGG                                  [1, 3]                    --
├─Sequential: 1-1                        [1, 10, 32, 32]           --
│    └─Conv2d: 2-1                       [1, 10, 64, 64]           280
│    └─ReLU: 2-2                         [1, 10, 64, 64]           --
│    └─Conv2d: 2-3                       [1, 10, 64, 64]           910
│    └─ReLU: 2-4                         [1, 10, 64, 64]           --
│    └─MaxPool2d: 2-5                    [1, 10, 32, 32]           --
├─Sequential: 1-2                        [1, 10, 16, 16]           --
│    └─Conv2d: 2-6                       [1, 10, 32, 32]           910
│    └─ReLU: 2-7                         [1, 10, 32, 32]           --
│    └─Conv2d: 2-8                       [1, 10, 32, 32]           910
│    └─ReLU: 2-9                         [1, 10, 32, 32]           --
│    └─MaxPool2d: 2-10                   [1, 10, 16, 16]           --
├─Sequential: 1-3                        [1, 3]                    --
│    └─Flatten: 2-11                     [1, 2560]                 --
│    └─Linear: 2-12                      [1, 3]                    7,683
==========================================================================================
Total params: 10,693
Trainable params: 10,693
Non-trainable params: 0
Total mult-adds (M): 6.75
==========================================================================================
Input size (MB): 0.05
Forward/backward pass size (MB): 0.82
Params size (MB): 0.04
Estimated Total Size (MB): 0.91
==========================================================================================`}
…
